…
filter_width: 3
start_filters: 32
learning rate: 0.001000
------------------------------
Loading and preprocessing train and test data...
------------------------------
------------------------------
Creating and compiling model...
------------------------------
Model: "model_1"
__________________________________________________________________________________________________
Layer (type)                    Output Shape         Param #     Connected to                     
==================================================================================================
input_1 (InputLayer)            (None, 1, 512, 512)  0                                            
__________________________________________________________________________________________________
conv2d_1 (Conv2D)               (None, 32, 512, 512) 320         input_1[0][0]                    
__________________________________________________________________________________________________
batch_normalization_1 (BatchNor (None, 32, 512, 512) 128         conv2d_1[0][0]                   
__________________________________________________________________________________________________
conv2d_2 (Conv2D)               (None, 32, 512, 512) 9248        batch_normalization_1[0][0]      
__________________________________________________________________________________________________
batch_normalization_2 (BatchNor (None, 32, 512, 512) 128         conv2d_2[0][0]                   
__________________________________________________________________________________________________
max_pooling2d_1 (MaxPooling2D)  (None, 32, 256, 256) 0           batch_normalization_2[0][0]      
__________________________________________________________________________________________________
conv2d_3 (Conv2D)               (None, 64, 256, 256) 18496       max_pooling2d_1[0][0]            
__________________________________________________________________________________________________
batch_normalization_3 (BatchNor (None, 64, 256, 256) 256         conv2d_3[0][0]                   
__________________________________________________________________________________________________
conv2d_4 (Conv2D)               (None, 64, 256, 256) 36928       batch_normalization_3[0][0]      
__________________________________________________________________________________________________
batch_normalization_4 (BatchNor (None, 64, 256, 256) 256         conv2d_4[0][0]                   
__________________________________________________________________________________________________
max_pooling2d_2 (MaxPooling2D)  (None, 64, 128, 128) 0           batch_normalization_4[0][0]      
__________________________________________________________________________________________________
conv2d_5 (Conv2D)               (None, 128, 128, 128 73856       max_pooling2d_2[0][0]            
__________________________________________________________________________________________________
batch_normalization_5 (BatchNor (None, 128, 128, 128 512         conv2d_5[0][0]                   
__________________________________________________________________________________________________
conv2d_6 (Conv2D)               (None, 128, 128, 128 147584      batch_normalization_5[0][0]      
__________________________________________________________________________________________________
batch_normalization_6 (BatchNor (None, 128, 128, 128 512         conv2d_6[0][0]                   
__________________________________________________________________________________________________
max_pooling2d_3 (MaxPooling2D)  (None, 128, 64, 64)  0           batch_normalization_6[0][0]      
__________________________________________________________________________________________________
conv2d_7 (Conv2D)               (None, 256, 64, 64)  295168      max_pooling2d_3[0][0]            
__________________________________________________________________________________________________
batch_normalization_7 (BatchNor (None, 256, 64, 64)  1024        conv2d_7[0][0]                   
__________________________________________________________________________________________________
conv2d_8 (Conv2D)               (None, 256, 64, 64)  590080      batch_normalization_7[0][0]      
__________________________________________________________________________________________________
batch_normalization_8 (BatchNor (None, 256, 64, 64)  1024        conv2d_8[0][0]                   
__________________________________________________________________________________________________
max_pooling2d_4 (MaxPooling2D)  (None, 256, 32, 32)  0           batch_normalization_8[0][0]      
__________________________________________________________________________________________________
conv2d_9 (Conv2D)               (None, 512, 32, 32)  1180160     max_pooling2d_4[0][0]            
__________________________________________________________________________________________________
batch_normalization_9 (BatchNor (None, 512, 32, 32)  2048        conv2d_9[0][0]                   
__________________________________________________________________________________________________
conv2d_10 (Conv2D)              (None, 512, 32, 32)  2359808     batch_normalization_9[0][0]      
__________________________________________________________________________________________________
batch_normalization_10 (BatchNo (None, 512, 32, 32)  2048        conv2d_10[0][0]                  
__________________________________________________________________________________________________
max_pooling2d_5 (MaxPooling2D)  (None, 512, 16, 16)  0           batch_normalization_10[0][0]     
__________________________________________________________________________________________________
conv2d_11 (Conv2D)              (None, 1024, 16, 16) 4719616     max_pooling2d_5[0][0]            
__________________________________________________________________________________________________
batch_normalization_11 (BatchNo (None, 1024, 16, 16) 4096        conv2d_11[0][0]                  
__________________________________________________________________________________________________
conv2d_12 (Conv2D)              (None, 1024, 16, 16) 9438208     batch_normalization_11[0][0]     
__________________________________________________________________________________________________
batch_normalization_12 (BatchNo (None, 1024, 16, 16) 4096        conv2d_12[0][0]                  
__________________________________________________________________________________________________
up_sampling2d_1 (UpSampling2D)  (None, 1024, 32, 32) 0           batch_normalization_12[0][0]     
__________________________________________________________________________________________________
concatenate_1 (Concatenate)     (None, 1536, 32, 32) 0           up_sampling2d_1[0][0]            
                                                                 batch_normalization_10[0][0]     
__________________________________________________________________________________________________
conv2d_13 (Conv2D)              (None, 512, 32, 32)  7078400     concatenate_1[0][0]              
__________________________________________________________________________________________________
batch_normalization_13 (BatchNo (None, 512, 32, 32)  2048        conv2d_13[0][0]                  
__________________________________________________________________________________________________
conv2d_14 (Conv2D)              (None, 512, 32, 32)  2359808     batch_normalization_13[0][0]     
__________________________________________________________________________________________________
batch_normalization_14 (BatchNo (None, 512, 32, 32)  2048        conv2d_14[0][0]                  
__________________________________________________________________________________________________
up_sampling2d_2 (UpSampling2D)  (None, 512, 64, 64)  0           batch_normalization_14[0][0]     
__________________________________________________________________________________________________
concatenate_2 (Concatenate)     (None, 768, 64, 64)  0           up_sampling2d_2[0][0]            
                                                                 batch_normalization_8[0][0]      
__________________________________________________________________________________________________
conv2d_15 (Conv2D)              (None, 256, 64, 64)  1769728     concatenate_2[0][0]              
__________________________________________________________________________________________________
batch_normalization_15 (BatchNo (None, 256, 64, 64)  1024        conv2d_15[0][0]                  
__________________________________________________________________________________________________
conv2d_16 (Conv2D)              (None, 256, 64, 64)  590080      batch_normalization_15[0][0]     
__________________________________________________________________________________________________
batch_normalization_16 (BatchNo (None, 256, 64, 64)  1024        conv2d_16[0][0]                  
__________________________________________________________________________________________________
up_sampling2d_3 (UpSampling2D)  (None, 256, 128, 128 0           batch_normalization_16[0][0]     
__________________________________________________________________________________________________
concatenate_3 (Concatenate)     (None, 384, 128, 128 0           up_sampling2d_3[0][0]            
…
__________________________________________________________________________________________________
up_sampling2d_4 (UpSampling2D)  (None, 128, 256, 256 0           batch_normalization_18[0][0]     
__________________________________________________________________________________________________
concatenate_4 (Concatenate)     (None, 192, 256, 256 0           up_sampling2d_4[0][0]            
                                                                 batch_normalization_4[0][0]      
__________________________________________________________________________________________________
conv2d_19 (Conv2D)              (None, 64, 256, 256) 110656      concatenate_4[0][0]              
__________________________________________________________________________________________________
batch_normalization_19 (BatchNo (None, 64, 256, 256) 256         conv2d_19[0][0]                  
__________________________________________________________________________________________________
conv2d_20 (Conv2D)              (None, 64, 256, 256) 36928       batch_normalization_19[0][0]     
__________________________________________________________________________________________________
batch_normalization_20 (BatchNo (None, 64, 256, 256) 256         conv2d_20[0][0]                  
__________________________________________________________________________________________________
up_sampling2d_5 (UpSampling2D)  (None, 64, 512, 512) 0           batch_normalization_20[0][0]     
__________________________________________________________________________________________________
concatenate_5 (Concatenate)     (None, 96, 512, 512) 0           up_sampling2d_5[0][0]            
                                                                 batch_normalization_2[0][0]      
__________________________________________________________________________________________________
conv2d_21 (Conv2D)              (None, 32, 512, 512) 27680       concatenate_5[0][0]              
__________________________________________________________________________________________________
batch_normalization_21 (BatchNo (None, 32, 512, 512) 128         conv2d_21[0][0]                  
__________________________________________________________________________________________________
conv2d_22 (Conv2D)              (None, 32, 512, 512) 9248        batch_normalization_21[0][0]     
__________________________________________________________________________________________________
batch_normalization_22 (BatchNo (None, 32, 512, 512) 128         conv2d_22[0][0]                  
__________________________________________________________________________________________________
conv2d_23 (Conv2D)              (None, 1, 512, 512)  33          batch_normalization_22[0][0]     
==================================================================================================
Total params: 31,466,177
Trainable params: 31,454,145
Non-trainable params: 12,032
__________________________________________________________________________________________________
------------------------------
Fitting model...
------------------------------
…
